…
h只匹配一个先验box（其实就是anchor box）。Faster R-CNN中一个ground truth匹配到两种anchor：每一个ground truth匹配到与它IoU最高的anchor，但是同时也把那些与它IoU大于0.7的anchor也当做正的，因此每一个ground truth会有多个与其匹配的anchor。 如果一个先验box没有被匹配到任何ground truth，那么它对于坐标回归或者类别预测没有贡献，只对目标预测（objectness）有用，也就是预测是否为目标时才有贡献。 类别预测使用多标签预测，每个bounding box都预测可能包含的类别。但是并不使用softmax，而是使用独立的logistic回归分类器，训练中使用二分类的交叉熵损失。更加复杂的数据集Open Image Dataset有很多重叠标签，比如女性和人就是包含关系，使用softmax其实强加了一个假设：每一个box恰好有一类，但通常不是这样的。比如一个box里包含了一个“women”，这个box还应该有“person”这个标签，因此多标签方法能够更好的拟合数据。 softmax每一个框只得到一个标签，对应分数最高的那个，不适合做多标签分类 softmax可以被多个独立的logistic分类器替代，且准确率不会下降 多尺度预测… filters size input output 0 conv 32 3 x 3 / 1 416 x 416 x 3 -&gt; 416 x 416 x 32 0.299 BFL OPs 1 conv 64 3 x 3 / 2 416 x 416 x 32 -&gt; 208 x 208 x 64 1.595 BFL OPs 2 conv 32 1 x 1 / 1 208 x 208 x 64 -&gt; 208 x 208 x 32 0.177 BFL OPs 3 conv 64 3 x 3 / 1 208 x 208 x 32 -&gt; 208 x 208 x 64 1.595 BFL OPs 4 res 1 208 x 208 x 64 -&gt; 208 x 208 x 64 5 conv 128 3 x 3 / 2 208 x 208 x 64 -&gt; 104 x 104 x 128 1.595 BFL OPs 6 conv 64 1 x 1 / 1 104 x 104 x 128 -&gt; 104 x 104 x 64 0.177 BFL OPs 7 conv 128 3 x 3 / 1 104 x 104 x 64 -&gt; 104 x 104 x 128 1.595 BFL OPs 8 res 5 104 x 104 x 128 -&gt; 104 x 104 x 128 9 conv 64 1 x 1 / 1 104 x 104 x 128 -&gt; 104 x 104 x 64 0.177 BFL OPs 10 conv 128 3 x 3 / 1 104 x 104 x 64 -&gt; 104 x 104 x 128 1.595 BFL OPs 11 res 8 104 x 104 x 128 -&gt; 104 x 104 x 128 12 conv 256 3 x 3 / 2 104 x 104 x 128 -&gt; 52 x 52 x 256 1.595 BFL OPs 13 conv 128 1 x 1 / 1 52 x 52 x 256 -&gt; 52 x 52 x 128 0.177 BFL OPs 14 conv 256 3 x 3 / 1 52 x 52 x 128 -&gt; 52 x 52 x 256 1.595 BFL OPs 15 res 12 52 x 52 x 256 -&gt; 52 x 52 x 256 16 conv 128 1 x 1 / 1 52 x 52 x 256 -&gt; 52 x 52 x 128 0.177 BFL OPs 17 conv 256 3 x 3 / 1 52 x 52 x 128 -&gt; 52 x 52 x 256 1.595 BFL OPs 18 res 15 52 x 52 x 256 -&gt; 52 x 52 x 256 19 conv 128 1 x 1 / 1 52 x 52 x 256 -&gt; 52 x 52 x 128 0.177 BFL OPs 20 conv 256 3 x 3 / 1 52 x 52 x 128 -&gt; 52 x 52 x 256 1.595 BFL OPs 21 res 18 52 x 52 x 256 -&gt; 52 x 52 x 256 22 conv 128 1 x 1 / 1 52 x 52 x 256 -&gt; 52 x 52 x 128 0.177 BFL OPs 23 conv 256 3 x 3 / 1 52 x 52 x 128 -&gt; 52 x 52 x 256 1.595 BFL OPs 24 res 21 52 x 52 x 256 -&gt; 52 x 52 x 256 25 conv 128 1 x 1 / 1 52 x 52 x 256 -&gt; 52 x 52 x 128 0.177 BFL OPs 26 conv 256 3 x 3 / 1 52 x 52 x 128 -&gt; 52 x 52 x 256 1.595 BFL OPs 27 res 24 52 x 52 x 256 -&gt; 52 x 52 x 256 28 conv 128 1 x 1 / 1 52 x 52 x 256 -&gt; 52 x 52 x 128 0.177 BFL OPs 29 conv 256 3 x 3 / 1 52 x 52 x 128 -&gt; 52 x 52 x 256 1.595 BFL OPs 30 res 27 52 x 52 x 256 -&gt; 52 x 52 x 256 31 conv 128 1 x 1 / 1 52 x 52 x 256 -&gt; 52 x 52 x 128 0.177 BFL OPs 32 conv 256 3 x 3 / 1 52 x 52 x 128 -&gt; 52 x 52 x 256 1.595 BFL OPs 33 res 30 52 x 52 x 256 -&gt; 52 x 52 x 256 34 conv 128 1 x 1 / 1 52 x 52 x 256 -&gt; 52 x 52 x 128 0.177 BFL OPs 35 conv 256 3 x 3 / 1 52 x 52 x 128 -&gt; 52 x 52 x 256 1.595 BFL OPs 36 res 33 52 x 52 x 256 -&gt; 52 x 52 x 256 37 conv 512 3 x 3 / 2 52 x 52 x 256 -&gt; 26 x 26 x 512 1.595 BFL OPs 38 conv 256 1 x 1 / 1 26 x 26 x 512 -&gt; 26 x 26 x 256 0.177 BFL OPs 39 conv 512 3 x 3 / 1 26 x 26 x 256 -&gt; 26 x 26 x 512 1.595 BFL OPs 40 res 37 26 x 26 x 512 -&gt; 26 x 26 x 512 41 conv 256 1 x 1 / 1 26 x 26 x 512 -&gt; 26 x 26 x 256 0.177 BFL OPs 42 conv 512 3 x 3 / 1 26 x 26 x 256 -&gt; 26 x 26 x 512 1.595 BFL OPs 43 res 40 26 x 26 x 512 -&gt; 26 x 26 x 512 44 conv 256 1 x 1 / 1 26 x 26 x 512 -&gt; 26 x 26 x 256 0.177 BFL OPs 45 conv 512 3 x 3 / 1 26 x 26 x 256 -&gt; 26 x 26 x 512 1.595 BFL OPs 46 res 43 26 x 26 x 512 -&gt; 26 x 26 x 512 47 conv 256 1 x 1 / 1 26 x 26 x 512 -&gt; 26 x 26 x 256 0.177 BFL OPs 48 conv 512 3 x 3 / 1 26 x 26 x 256 -&gt; 26 x 26 x 512 1.595 BFL OPs 49 res 46 26 x 26 x 512 -&gt; 26 x 26 x 512 50 conv 256 1 x 1 / 1 26 x 26 x 512 -&gt; 26 x 26 x 256 0.177 BFL OPs 51 conv 512 3 x 3 / 1 26 x 26 x 256 -&gt; 26 x 26 x 512 1.595 BFL OPs 52 res 49 26 x 26 x 512 -&gt; 26 x 26 x 512 53 conv 256 1 x 1 / 1 26 x 26 x 512 -&gt; 26 x 26 x 256 0.177 BFL OPs 54 conv 512 3 x 3 / 1 26 x 26 x 256 -&gt; 26 x 26 x 512 1.595 BFL OPs 55 res 52 26 x 26 x 512 -&gt; 26 x 26 x 512 56 conv 256 1 x 1 / 1 26 x 26 x 512 -&gt; 26 x 26 x 256 0.177 BFL OPs 57 conv 512 3 x 3 / 1 26 x 26 x 256 -&gt; 26 x 26 x 512 1.595 BFL OPs 58 res 55 26 x 26 x 512 -&gt; 26 x 26 x 512 59 conv 256 1 x 1 / 1 26 x 26 x 512 -&gt; 26 x 26 x 256 0.177 BFL OPs 60 conv 512 3 x 3 / 1 26 x 26 x 256 -&gt; 26 x 26 x 512 1.595 BFL OPs 61 res 58 26 x 26 x 512 -&gt; 26 x 26 x 512 62 conv 1024 3 x 3 / 2 26 x 26 x 512 -&gt; 13 x 13 x1024 1.595 BFL OPs 63 conv 512 1 x 1 / 1 13 x 13 x1024 -&gt; 13 x 13 x 512 0.177 BFL OPs 64 conv 1024 3 x 3 / 1 13 x 13 x 512 -&gt; 13 x 13 x1024 1.595 BFL OPs 65 res 62 13 x 13 x1024 -&gt; 13 x 13 x1024 66 conv 512 1 x 1 / 1 13 x 13 x1024 -&gt; 13 x 13 x 512 0.177 BFL OPs 67 conv 1024 3 x 3 / 1 13 x 13 x 512 -&gt; 13 x 13 x1024 1.595 BFLOPs 68 res 65 13 x 13 x1024 -&gt; 13 x 13 x1024 69 conv 512 1 x 1 / 1 13 x 13 x1024 -&gt; 13 x 13 x 512 0.177 BFLOPs 70 conv 1024 3 x 3 / 1 13 x 13 x 512 -&gt; 13 x 13 x1024 1.595 BFLOPs 71 res 68 13 x 13 x1024 -&gt; 13 x 13 x1024 72 conv 512 1 x 1 / 1 13 x 13 x1024 -&gt; 13 x 13 x 512 0.177 BFLOPs 73 conv 1024 3 x 3 / 1 13 x 13 x 512 -&gt; 13 x 13 x1024 1.595 BFLOPs 74 res 71 13 x 13 x1024 -&gt; 13 x 13 x1024 75 conv 512 1 x 1 / 1 13 x 13 x1024 -&gt; 13 x 13 x 512 0.177 BFLOPs 76 conv 1024 3 x 3 / 1 13 x 13 x 512 -&gt; 13 x 13 x1024 1.595 BFLOPs 77 conv 512 1 x 1 / 1 13 x 13 x1024 -&gt; 13 x 13 x 512 0.177 BFLOPs 78 conv 1024 3 x 3 / 1 13 x 13 x 512 -&gt; 13 x 13 x1024 1.595 BFLOPs 79 conv 512 1 x 1 / 1 13 x 13 x1024 -&gt; 13 x 13 x 512 0.177 BFLOPs 80 conv 1024 3 x 3 / 1 13 x 13 x 512 -&gt; 13 x 13 x1024 1.595 BFLOPs 81 conv 255 1 x 1 / 1 13 x 13 x1024 -&gt; 13 x 13 x 255 0.088 BFLOPs 82 detection # 75~81行是尺度1的预测，对13X13X1024的feature，使用255（3x(4+1+80)）个卷积核对每个位置去做预测 83 route 79 #取79行卷积对应的feature map 13 x 13 x 512 84 conv 256 1 x 1 / 1 13 x 13 x 512 -&gt; 13 x 13 x 256 0.044 BFLOPs 85 upsample 2x 13 x 13 x 256 -&gt; 26 x 26 x 256 86 route 85 61 #取85和61行的feature map做拼接得到下面 26 x 26 x 768的feature map 87 conv 256 1 x 1 / 1 26 x 26 x 768 -&gt; 26 x 26 x 256 0.266 BFLOPs 88 conv 512 3 x 3 / 1 26 x 26 x 256 -&gt; 26 x 26 x 512 1.595 BFLOPs 89 conv 256 1 x 1 / 1 26 x 26 x 512 -&gt; 26 x 26 x 256 0.177 BFLOPs 90 conv 512 3 x 3 / 1 26 x 26 x 256 -&gt; 26 x 26 x 512 1.595 BFLOPs 91 conv 256 1 x 1 / 1 26 x 26 x 512 -&gt; 26 x 26 x 256 0.177 BFLOPs 92 conv 512 3 x 3 / 1 26 x 26 x 256 -&gt; 26 x 26 x 512 1.595 BFLOPs 93 conv 255 1 x 1 / 1 26 x 26 x 512 -&gt; 26 x 26 x 255 0.177 BFLOPs 94 detection #尺度2的预测是在尺度1的feature map基础上做的 95 route 91 96 conv 128 1 x 1 / 1 26 x 26 x 256 -&gt; 26 x 26 x 128 0.044 BFLOPs 97 upsample 2x 26 x 26 x 128 -&gt; 52 x 52 x 128 98 route 97 36 99 conv 128 1 x 1 / 1 52 x 52 x 384 -&gt; 52 x 52 x 128 0.266 BFLOPs 100 conv 256 3 x 3 / 1 52 x 52 x 128 -&gt; 52 x 52 x 256 1.595 BFLOPs 101 conv 128 1 x 1 / 1 52 x 52 x 256 -&gt; 52 x 52 x 128 0.177 BFLOPs 102 conv 256 3 x 3 / 1 52 x 52 x 128 -&gt; 52 x 52 x 256 1.595 BFLOPs 103 conv 128 1 x 1 / 1 52 x 52 x 256 -&gt; 52 x 52 x 128 0.177 BFLOPs 104 conv 256 3 x 3 / 1 52 x 52 x 128 -&gt; 52 x 52 x 256 1.595 BFLOPs 105 conv 255 1 x 1 / 1 52 x 52 x 256 -&gt; 52 x 52 x 255 0.353 BFLOPs 106 detection #尺度3的预测是在尺度2的feature map基础上做的 YOLOv3检测网络输入为416x416，5倍下采样后，最后一层卷积的输出是13x13。使用了一种与特征金字塔网络（FPN）相似的概念，YOLOv3在3个不同的尺度进行预测： 尺度1：在基础的特征提取网络上添加了几个卷积层，在最后一个卷积层输出的13x13的feature map上预测一个3-d的tensor编码bounding box，目标和类别的预测。实验中，对于COCO数据集，每一个尺度预测3个box，所以tensor的尺寸就是NxNx[3x(4+1+80)]，feature map大小为NxN，每个box有4个坐标，1个目标分数，80个类别分数。 尺度2：提取尺度1的13x13的feature map
…
